{"config": {"name": "model_18", "input_layers": [["input_19", 0, 0]], "layers": [{"name": "input_19", "config": {"sparse": false, "batch_input_shape": [null, 224, 224, 3], "dtype": "float32", "name": "input_19"}, "class_name": "InputLayer", "inbound_nodes": []}, {"name": "conv1_pad", "config": {"name": "conv1_pad", "trainable": false, "padding": [[3, 3], [3, 3]], "data_format": "channels_last"}, "class_name": "ZeroPadding2D", "inbound_nodes": [[["input_19", 0, 0, {}]]]}, {"name": "conv1", "config": {"name": "conv1", "bias_initializer": {"config": {}, "class_name": "Zeros"}, "filters": 64, "activation": "linear", "kernel_regularizer": null, "bias_constraint": null, "kernel_initializer": {"config": {"seed": null, "scale": 2.0, "mode": "fan_in", "distribution": "normal"}, "class_name": "VarianceScaling"}, "trainable": false, "strides": [2, 2], "activity_regularizer": null, "kernel_constraint": null, "bias_regularizer": null, "kernel_size": [7, 7], "dilation_rate": [1, 1], "padding": "valid", "use_bias": true, "data_format": "channels_last"}, "class_name": "Conv2D", "inbound_nodes": [[["conv1_pad", 0, 0, {}]]]}, {"name": "bn_conv1", "config": {"name": "bn_conv1", "gamma_constraint": null, "axis": 3, "momentum": 0.99, "trainable": false, "epsilon": 0.001, "moving_mean_initializer": {"config": {}, "class_name": "Zeros"}, "gamma_initializer": {"config": {}, "class_name": "Ones"}, "beta_constraint": null, "scale": true, "gamma_regularizer": null, "beta_regularizer": null, "center": true, "moving_variance_initializer": {"config": {}, "class_name": "Ones"}, "beta_initializer": {"config": {}, "class_name": "Zeros"}}, "class_name": "BatchNormalization", "inbound_nodes": [[["conv1", 0, 0, {}]]]}, {"name": "activation_246", "config": {"name": "activation_246", "trainable": false, "activation": "relu"}, "class_name": "Activation", "inbound_nodes": [[["bn_conv1", 0, 0, {}]]]}, {"name": "pool1_pad", "config": {"name": "pool1_pad", "trainable": false, "padding": [[1, 1], [1, 1]], "data_format": "channels_last"}, "class_name": "ZeroPadding2D", "inbound_nodes": [[["activation_246", 0, 0, {}]]]}, {"name": "max_pooling2d_6", "config": {"name": "max_pooling2d_6", "pool_size": [3, 3], "trainable": false, "padding": "valid", "strides": [2, 2], "data_format": "channels_last"}, "class_name": "MaxPooling2D", "inbound_nodes": [[["pool1_pad", 0, 0, {}]]]}, {"name": "res2a_branch2a", "config": {"name": "res2a_branch2a", "bias_initializer": {"config": {}, "class_name": "Zeros"}, "filters": 64, "activation": "linear", "kernel_regularizer": null, "bias_constraint": null, "kernel_initializer": {"config": {"seed": null, "scale": 2.0, "mode": "fan_in", "distribution": "normal"}, "class_name": "VarianceScaling"}, "trainable": false, "strides": [1, 1], "activity_regularizer": null, "kernel_constraint": null, "bias_regularizer": null, "kernel_size": [1, 1], "dilation_rate": [1, 1], "padding": "valid", "use_bias": true, "data_format": "channels_last"}, "class_name": "Conv2D", "inbound_nodes": [[["max_pooling2d_6", 0, 0, {}]]]}, {"name": "bn2a_branch2a", "config": {"name": "bn2a_branch2a", "gamma_constraint": null, "axis": 3, "momentum": 0.99, "trainable": false, "epsilon": 0.001, "moving_mean_initializer": {"config": {}, "class_name": "Zeros"}, "gamma_initializer": {"config": {}, "class_name": "Ones"}, "beta_constraint": null, "scale": true, "gamma_regularizer": null, "beta_regularizer": null, "center": true, "moving_variance_initializer": {"config": {}, "class_name": "Ones"}, "beta_initializer": {"config": {}, "class_name": "Zeros"}}, "class_name": "BatchNormalization", "inbound_nodes": [[["res2a_branch2a", 0, 0, {}]]]}, {"name": "activation_247", "config": {"name": "activation_247", "trainable": false, "activation": "relu"}, "class_name": "Activation", "inbound_nodes": [[["bn2a_branch2a", 0, 0, {}]]]}, {"name": "res2a_branch2b", "config": {"name": "res2a_branch2b", "bias_initializer": {"config": {}, "class_name": "Zeros"}, "filters": 64, "activation": "linear", "kernel_regularizer": null, "bias_constraint": null, "kernel_initializer": {"config": {"seed": null, "scale": 2.0, "mode": "fan_in", "distribution": "normal"}, "class_name": "VarianceScaling"}, "trainable": false, "strides": [1, 1], "activity_regularizer": null, "kernel_constraint": null, "bias_regularizer": null, "kernel_size": [3, 3], "dilation_rate": [1, 1], "padding": "same", "use_bias": true, "data_format": "channels_last"}, "class_name": "Conv2D", "inbound_nodes": [[["activation_247", 0, 0, {}]]]}, {"name": "bn2a_branch2b", "config": {"name": "bn2a_branch2b", "gamma_constraint": null, "axis": 3, "momentum": 0.99, "trainable": false, "epsilon": 0.001, "moving_mean_initializer": {"config": {}, "class_name": "Zeros"}, "gamma_initializer": {"config": {}, "class_name": "Ones"}, "beta_constraint": null, "scale": true, "gamma_regularizer": null, "beta_regularizer": null, "center": true, "moving_variance_initializer": {"config": {}, "class_name": "Ones"}, "beta_initializer": {"config": {}, "class_name": "Zeros"}}, "class_name": "BatchNormalization", "inbound_nodes": [[["res2a_branch2b", 0, 0, {}]]]}, {"name": "activation_248", "config": {"name": "activation_248", "trainable": false, "activation": "relu"}, "class_name": "Activation", "inbound_nodes": [[["bn2a_branch2b", 0, 0, {}]]]}, {"name": "res2a_branch2c", "config": {"name": "res2a_branch2c", "bias_initializer": {"config": {}, "class_name": "Zeros"}, "filters": 256, "activation": "linear", "kernel_regularizer": null, "bias_constraint": null, "kernel_initializer": {"config": {"seed": null, "scale": 2.0, "mode": "fan_in", "distribution": "normal"}, "class_name": "VarianceScaling"}, "trainable": false, "strides": [1, 1], "activity_regularizer": null, "kernel_constraint": null, "bias_regularizer": null, "kernel_size": [1, 1], "dilation_rate": [1, 1], "padding": "valid", "use_bias": true, "data_format": "channels_last"}, "class_name": "Conv2D", "inbound_nodes": [[["activation_248", 0, 0, {}]]]}, {"name": "res2a_branch1", "config": {"name": "res2a_branch1", "bias_initializer": {"config": {}, "class_name": "Zeros"}, "filters": 256, "activation": "linear", "kernel_regularizer": null, "bias_constraint": null, "kernel_initializer": {"config": {"seed": null, "scale": 2.0, "mode": "fan_in", "distribution": "normal"}, "class_name": "VarianceScaling"}, "trainable": false, "strides": [1, 1], "activity_regularizer": null, "kernel_constraint": null, "bias_regularizer": null, "kernel_size": [1, 1], "dilation_rate": [1, 1], "padding": "valid", "use_bias": true, "data_format": "channels_last"}, "class_name": "Conv2D", "inbound_nodes": [[["max_pooling2d_6", 0, 0, {}]]]}, {"name": "bn2a_branch2c", "config": {"name": "bn2a_branch2c", "gamma_constraint": null, "axis": 3, "momentum": 0.99, "trainable": false, "epsilon": 0.001, "moving_mean_initializer": {"config": {}, "class_name": "Zeros"}, "gamma_initializer": {"config": {}, "class_name": "Ones"}, "beta_constraint": null, "scale": true, "gamma_regularizer": null, "beta_regularizer": null, "center": true, "moving_variance_initializer": {"config": {}, "class_name": "Ones"}, "beta_initializer": {"config": {}, "class_name": "Zeros"}}, "class_name": "BatchNormalization", "inbound_nodes": [[["res2a_branch2c", 0, 0, {}]]]}, {"name": "bn2a_branch1", "config": {"name": "bn2a_branch1", "gamma_constraint": null, "axis": 3, "momentum": 0.99, "trainable": false, "epsilon": 0.001, "moving_mean_initializer": {"config": {}, "class_name": "Zeros"}, "gamma_initializer": {"config": {}, "class_name": "Ones"}, "beta_constraint": null, "scale": true, "gamma_regularizer": null, "beta_regularizer": null, "center": true, "moving_variance_initializer": {"config": {}, "class_name": "Ones"}, "beta_initializer": {"config": {}, "class_name": "Zeros"}}, "class_name": "BatchNormalization", "inbound_nodes": [[["res2a_branch1", 0, 0, {}]]]}, {"name": "add_81", "config": {"name": "add_81", "trainable": false}, "class_name": "Add", "inbound_nodes": [[["bn2a_branch2c", 0, 0, {}], ["bn2a_branch1", 0, 0, {}]]]}, {"name": "activation_249", "config": {"name": "activation_249", "trainable": false, "activation": "relu"}, "class_name": "Activation", "inbound_nodes": [[["add_81", 0, 0, {}]]]}, {"name": "res2b_branch2a", "config": {"name": "res2b_branch2a", "bias_initializer": {"config": {}, "class_name": "Zeros"}, "filters": 64, "activation": "linear", "kernel_regularizer": null, "bias_constraint": null, "kernel_initializer": {"config": {"seed": null, "scale": 2.0, "mode": "fan_in", "distribution": "normal"}, "class_name": "VarianceScaling"}, "trainable": false, "strides": [1, 1], "activity_regularizer": null, "kernel_constraint": null, "bias_regularizer": null, "kernel_size": [1, 1], "dilation_rate": [1, 1], "padding": "valid", "use_bias": true, "data_format": "channels_last"}, "class_name": "Conv2D", "inbound_nodes": [[["activation_249", 0, 0, {}]]]}, {"name": "bn2b_branch2a", "config": {"name": "bn2b_branch2a", "gamma_constraint": null, "axis": 3, "momentum": 0.99, "trainable": false, "epsilon": 0.001, "moving_mean_initializer": {"config": {}, "class_name": "Zeros"}, "gamma_initializer": {"config": {}, "class_name": "Ones"}, "beta_constraint": null, "scale": true, "gamma_regularizer": null, "beta_regularizer": null, "center": true, "moving_variance_initializer": {"config": {}, "class_name": "Ones"}, "beta_initializer": {"config": {}, "class_name": "Zeros"}}, "class_name": "BatchNormalization", "inbound_nodes": [[["res2b_branch2a", 0, 0, {}]]]}, {"name": "activation_250", "config": {"name": "activation_250", "trainable": false, "activation": "relu"}, "class_name": "Activation", "inbound_nodes": [[["bn2b_branch2a", 0, 0, {}]]]}, {"name": "res2b_branch2b", "config": {"name": "res2b_branch2b", "bias_initializer": {"config": {}, "class_name": "Zeros"}, "filters": 64, "activation": "linear", "kernel_regularizer": null, "bias_constraint": null, "kernel_initializer": {"config": {"seed": null, "scale": 2.0, "mode": "fan_in", "distribution": "normal"}, "class_name": "VarianceScaling"}, "trainable": false, "strides": [1, 1], "activity_regularizer": null, "kernel_constraint": null, "bias_regularizer": null, "kernel_size": [3, 3], "dilation_rate": [1, 1], "padding": "same", "use_bias": true, "data_format": "channels_last"}, "class_name": "Conv2D", "inbound_nodes": [[["activation_250", 0, 0, {}]]]}, {"name": "bn2b_branch2b", "config": {"name": "bn2b_branch2b", "gamma_constraint": null, "axis": 3, "momentum": 0.99, "trainable": false, "epsilon": 0.001, "moving_mean_initializer": {"config": {}, "class_name": "Zeros"}, "gamma_initializer": {"config": {}, "class_name": "Ones"}, "beta_constraint": null, "scale": true, "gamma_regularizer": null, "beta_regularizer": null, "center": true, "moving_variance_initializer": {"config": {}, "class_name": "Ones"}, "beta_initializer": {"config": {}, "class_name": "Zeros"}}, "class_name": "BatchNormalization", "inbound_nodes": [[["res2b_branch2b", 0, 0, {}]]]}, {"name": "activation_251", "config": {"name": "activation_251", "trainable": false, "activation": "relu"}, "class_name": "Activation", "inbound_nodes": [[["bn2b_branch2b", 0, 0, {}]]]}, {"name": "res2b_branch2c", "config": {"name": "res2b_branch2c", "bias_initializer": {"config": {}, "class_name": "Zeros"}, "filters": 256, "activation": "linear", "kernel_regularizer": null, "bias_constraint": null, "kernel_initializer": {"config": {"seed": null, "scale": 2.0, "mode": "fan_in", "distribution": "normal"}, "class_name": "VarianceScaling"}, "trainable": false, "strides": [1, 1], "activity_regularizer": null, "kernel_constraint": null, "bias_regularizer": null, "kernel_size": [1, 1], "dilation_rate": [1, 1], "padding": "valid", "use_bias": true, "data_format": "channels_last"}, "class_name": "Conv2D", "inbound_nodes": [[["activation_251", 0, 0, {}]]]}, {"name": "bn2b_branch2c", "config": {"name": "bn2b_branch2c", "gamma_constraint": null, "axis": 3, "momentum": 0.99, "trainable": false, "epsilon": 0.001, "moving_mean_initializer": {"config": {}, "class_name": "Zeros"}, "gamma_initializer": {"config": {}, "class_name": "Ones"}, "beta_constraint": null, "scale": true, "gamma_regularizer": null, "beta_regularizer": null, "center": true, "moving_variance_initializer": {"config": {}, "class_name": "Ones"}, "beta_initializer": {"config": {}, "class_name": "Zeros"}}, "class_name": "BatchNormalization", "inbound_nodes": [[["res2b_branch2c", 0, 0, {}]]]}, {"name": "add_82", "config": {"name": "add_82", "trainable": false}, "class_name": "Add", "inbound_nodes": [[["bn2b_branch2c", 0, 0, {}], ["activation_249", 0, 0, {}]]]}, {"name": "activation_252", "config": {"name": "activation_252", "trainable": false, "activation": "relu"}, "class_name": "Activation", "inbound_nodes": [[["add_82", 0, 0, {}]]]}, {"name": "res2c_branch2a", "config": {"name": "res2c_branch2a", "bias_initializer": {"config": {}, "class_name": "Zeros"}, "filters": 64, "activation": "linear", "kernel_regularizer": null, "bias_constraint": null, "kernel_initializer": {"config": {"seed": null, "scale": 2.0, "mode": "fan_in", "distribution": "normal"}, "class_name": "VarianceScaling"}, "trainable": false, "strides": [1, 1], "activity_regularizer": null, "kernel_constraint": null, "bias_regularizer": null, "kernel_size": [1, 1], "dilation_rate": [1, 1], "padding": "valid", "use_bias": true, "data_format": "channels_last"}, "class_name": "Conv2D", "inbound_nodes": [[["activation_252", 0, 0, {}]]]}, {"name": "bn2c_branch2a", "config": {"name": "bn2c_branch2a", "gamma_constraint": null, "axis": 3, "momentum": 0.99, "trainable": false, "epsilon": 0.001, "moving_mean_initializer": {"config": {}, "class_name": "Zeros"}, "gamma_initializer": {"config": {}, "class_name": "Ones"}, "beta_constraint": null, "scale": true, "gamma_regularizer": null, "beta_regularizer": null, "center": true, "moving_variance_initializer": {"config": {}, "class_name": "Ones"}, "beta_initializer": {"config": {}, "class_name": "Zeros"}}, "class_name": "BatchNormalization", "inbound_nodes": [[["res2c_branch2a", 0, 0, {}]]]}, {"name": "activation_253", "config": {"name": "activation_253", "trainable": false, "activation": "relu"}, "class_name": "Activation", "inbound_nodes": [[["bn2c_branch2a", 0, 0, {}]]]}, {"name": "res2c_branch2b", "config": {"name": "res2c_branch2b", "bias_initializer": {"config": {}, "class_name": "Zeros"}, "filters": 64, "activation": "linear", "kernel_regularizer": null, "bias_constraint": null, "kernel_initializer": {"config": {"seed": null, "scale": 2.0, "mode": "fan_in", "distribution": "normal"}, "class_name": "VarianceScaling"}, "trainable": false, "strides": [1, 1], "activity_regularizer": null, "kernel_constraint": null, "bias_regularizer": null, "kernel_size": [3, 3], "dilation_rate": [1, 1], "padding": "same", "use_bias": true, "data_format": "channels_last"}, "class_name": "Conv2D", "inbound_nodes": [[["activation_253", 0, 0, {}]]]}, {"name": "bn2c_branch2b", "config": {"name": "bn2c_branch2b", "gamma_constraint": null, "axis": 3, "momentum": 0.99, "trainable": false, "epsilon": 0.001, "moving_mean_initializer": {"config": {}, "class_name": "Zeros"}, "gamma_initializer": {"config": {}, "class_name": "Ones"}, "beta_constraint": null, "scale": true, "gamma_regularizer": null, "beta_regularizer": null, "center": true, "moving_variance_initializer": {"config": {}, "class_name": "Ones"}, "beta_initializer": {"config": {}, "class_name": "Zeros"}}, "class_name": "BatchNormalization", "inbound_nodes": [[["res2c_branch2b", 0, 0, {}]]]}, {"name": "activation_254", "config": {"name": "activation_254", "trainable": false, "activation": "relu"}, "class_name": "Activation", "inbound_nodes": [[["bn2c_branch2b", 0, 0, {}]]]}, {"name": "res2c_branch2c", "config": {"name": "res2c_branch2c", "bias_initializer": {"config": {}, "class_name": "Zeros"}, "filters": 256, "activation": "linear", "kernel_regularizer": null, "bias_constraint": null, "kernel_initializer": {"config": {"seed": null, "scale": 2.0, "mode": "fan_in", "distribution": "normal"}, "class_name": "VarianceScaling"}, "trainable": false, "strides": [1, 1], "activity_regularizer": null, "kernel_constraint": null, "bias_regularizer": null, "kernel_size": [1, 1], "dilation_rate": [1, 1], "padding": "valid", "use_bias": true, "data_format": "channels_last"}, "class_name": "Conv2D", "inbound_nodes": [[["activation_254", 0, 0, {}]]]}, {"name": "bn2c_branch2c", "config": {"name": "bn2c_branch2c", "gamma_constraint": null, "axis": 3, "momentum": 0.99, "trainable": false, "epsilon": 0.001, "moving_mean_initializer": {"config": {}, "class_name": "Zeros"}, "gamma_initializer": {"config": {}, "class_name": "Ones"}, "beta_constraint": null, "scale": true, "gamma_regularizer": null, "beta_regularizer": null, "center": true, "moving_variance_initializer": {"config": {}, "class_name": "Ones"}, "beta_initializer": {"config": {}, "class_name": "Zeros"}}, "class_name": "BatchNormalization", "inbound_nodes": [[["res2c_branch2c", 0, 0, {}]]]}, {"name": "add_83", "config": {"name": "add_83", "trainable": false}, "class_name": "Add", "inbound_nodes": [[["bn2c_branch2c", 0, 0, {}], ["activation_252", 0, 0, {}]]]}, {"name": "activation_255", "config": {"name": "activation_255", "trainable": false, "activation": "relu"}, "class_name": "Activation", "inbound_nodes": [[["add_83", 0, 0, {}]]]}, {"name": "res3a_branch2a", "config": {"name": "res3a_branch2a", "bias_initializer": {"config": {}, "class_name": "Zeros"}, "filters": 128, "activation": "linear", "kernel_regularizer": null, "bias_constraint": null, "kernel_initializer": {"config": {"seed": null, "scale": 2.0, "mode": "fan_in", "distribution": "normal"}, "class_name": "VarianceScaling"}, "trainable": false, "strides": [2, 2], "activity_regularizer": null, "kernel_constraint": null, "bias_regularizer": null, "kernel_size": [1, 1], "dilation_rate": [1, 1], "padding": "valid", "use_bias": true, "data_format": "channels_last"}, "class_name": "Conv2D", "inbound_nodes": [[["activation_255", 0, 0, {}]]]}, {"name": "bn3a_branch2a", "config": {"name": "bn3a_branch2a", "gamma_constraint": null, "axis": 3, "momentum": 0.99, "trainable": false, "epsilon": 0.001, "moving_mean_initializer": {"config": {}, "class_name": "Zeros"}, "gamma_initializer": {"config": {}, "class_name": "Ones"}, "beta_constraint": null, "scale": true, "gamma_regularizer": null, "beta_regularizer": null, "center": true, "moving_variance_initializer": {"config": {}, "class_name": "Ones"}, "beta_initializer": {"config": {}, "class_name": "Zeros"}}, "class_name": "BatchNormalization", "inbound_nodes": [[["res3a_branch2a", 0, 0, {}]]]}, {"name": "activation_256", "config": {"name": "activation_256", "trainable": false, "activation": "relu"}, "class_name": "Activation", "inbound_nodes": [[["bn3a_branch2a", 0, 0, {}]]]}, {"name": "res3a_branch2b", "config": {"name": "res3a_branch2b", "bias_initializer": {"config": {}, "class_name": "Zeros"}, "filters": 128, "activation": "linear", "kernel_regularizer": null, "bias_constraint": null, "kernel_initializer": {"config": {"seed": null, "scale": 2.0, "mode": "fan_in", "distribution": "normal"}, "class_name": "VarianceScaling"}, "trainable": false, "strides": [1, 1], "activity_regularizer": null, "kernel_constraint": null, "bias_regularizer": null, "kernel_size": [3, 3], "dilation_rate": [1, 1], "padding": "same", "use_bias": true, "data_format": "channels_last"}, "class_name": "Conv2D", "inbound_nodes": [[["activation_256", 0, 0, {}]]]}, {"name": "bn3a_branch2b", "config": {"name": "bn3a_branch2b", "gamma_constraint": null, "axis": 3, "momentum": 0.99, "trainable": false, "epsilon": 0.001, "moving_mean_initializer": {"config": {}, "class_name": "Zeros"}, "gamma_initializer": {"config": {}, "class_name": "Ones"}, "beta_constraint": null, "scale": true, "gamma_regularizer": null, "beta_regularizer": null, "center": true, "moving_variance_initializer": {"config": {}, "class_name": "Ones"}, "beta_initializer": {"config": {}, "class_name": "Zeros"}}, "class_name": "BatchNormalization", "inbound_nodes": [[["res3a_branch2b", 0, 0, {}]]]}, {"name": "activation_257", "config": {"name": "activation_257", "trainable": false, "activation": "relu"}, "class_name": "Activation", "inbound_nodes": [[["bn3a_branch2b", 0, 0, {}]]]}, {"name": "res3a_branch2c", "config": {"name": "res3a_branch2c", "bias_initializer": {"config": {}, "class_name": "Zeros"}, "filters": 512, "activation": "linear", "kernel_regularizer": null, "bias_constraint": null, "kernel_initializer": {"config": {"seed": null, "scale": 2.0, "mode": "fan_in", "distribution": "normal"}, "class_name": "VarianceScaling"}, "trainable": false, "strides": [1, 1], "activity_regularizer": null, "kernel_constraint": null, "bias_regularizer": null, "kernel_size": [1, 1], "dilation_rate": [1, 1], "padding": "valid", "use_bias": true, "data_format": "channels_last"}, "class_name": "Conv2D", "inbound_nodes": [[["activation_257", 0, 0, {}]]]}, {"name": "res3a_branch1", "config": {"name": "res3a_branch1", "bias_initializer": {"config": {}, "class_name": "Zeros"}, "filters": 512, "activation": "linear", "kernel_regularizer": null, "bias_constraint": null, "kernel_initializer": {"config": {"seed": null, "scale": 2.0, "mode": "fan_in", "distribution": "normal"}, "class_name": "VarianceScaling"}, "trainable": false, "strides": [2, 2], "activity_regularizer": null, "kernel_constraint": null, "bias_regularizer": null, "kernel_size": [1, 1], "dilation_rate": [1, 1], "padding": "valid", "use_bias": true, "data_format": "channels_last"}, "class_name": "Conv2D", "inbound_nodes": [[["activation_255", 0, 0, {}]]]}, {"name": "bn3a_branch2c", "config": {"name": "bn3a_branch2c", "gamma_constraint": null, "axis": 3, "momentum": 0.99, "trainable": false, "epsilon": 0.001, "moving_mean_initializer": {"config": {}, "class_name": "Zeros"}, "gamma_initializer": {"config": {}, "class_name": "Ones"}, "beta_constraint": null, "scale": true, "gamma_regularizer": null, "beta_regularizer": null, "center": true, "moving_variance_initializer": {"config": {}, "class_name": "Ones"}, "beta_initializer": {"config": {}, "class_name": "Zeros"}}, "class_name": "BatchNormalization", "inbound_nodes": [[["res3a_branch2c", 0, 0, {}]]]}, {"name": "bn3a_branch1", "config": {"name": "bn3a_branch1", "gamma_constraint": null, "axis": 3, "momentum": 0.99, "trainable": false, "epsilon": 0.001, "moving_mean_initializer": {"config": {}, "class_name": "Zeros"}, "gamma_initializer": {"config": {}, "class_name": "Ones"}, "beta_constraint": null, "scale": true, "gamma_regularizer": null, "beta_regularizer": null, "center": true, "moving_variance_initializer": {"config": {}, "class_name": "Ones"}, "beta_initializer": {"config": {}, "class_name": "Zeros"}}, "class_name": "BatchNormalization", "inbound_nodes": [[["res3a_branch1", 0, 0, {}]]]}, {"name": "add_84", "config": {"name": "add_84", "trainable": false}, "class_name": "Add", "inbound_nodes": [[["bn3a_branch2c", 0, 0, {}], ["bn3a_branch1", 0, 0, {}]]]}, {"name": "activation_258", "config": {"name": "activation_258", "trainable": false, "activation": "relu"}, "class_name": "Activation", "inbound_nodes": [[["add_84", 0, 0, {}]]]}, {"name": "res3b_branch2a", "config": {"name": "res3b_branch2a", "bias_initializer": {"config": {}, "class_name": "Zeros"}, "filters": 128, "activation": "linear", "kernel_regularizer": null, "bias_constraint": null, "kernel_initializer": {"config": {"seed": null, "scale": 2.0, "mode": "fan_in", "distribution": "normal"}, "class_name": "VarianceScaling"}, "trainable": false, "strides": [1, 1], "activity_regularizer": null, "kernel_constraint": null, "bias_regularizer": null, "kernel_size": [1, 1], "dilation_rate": [1, 1], "padding": "valid", "use_bias": true, "data_format": "channels_last"}, "class_name": "Conv2D", "inbound_nodes": [[["activation_258", 0, 0, {}]]]}, {"name": "bn3b_branch2a", "config": {"name": "bn3b_branch2a", "gamma_constraint": null, "axis": 3, "momentum": 0.99, "trainable": false, "epsilon": 0.001, "moving_mean_initializer": {"config": {}, "class_name": "Zeros"}, "gamma_initializer": {"config": {}, "class_name": "Ones"}, "beta_constraint": null, "scale": true, "gamma_regularizer": null, "beta_regularizer": null, "center": true, "moving_variance_initializer": {"config": {}, "class_name": "Ones"}, "beta_initializer": {"config": {}, "class_name": "Zeros"}}, "class_name": "BatchNormalization", "inbound_nodes": [[["res3b_branch2a", 0, 0, {}]]]}, {"name": "activation_259", "config": {"name": "activation_259", "trainable": false, "activation": "relu"}, "class_name": "Activation", "inbound_nodes": [[["bn3b_branch2a", 0, 0, {}]]]}, {"name": "res3b_branch2b", "config": {"name": "res3b_branch2b", "bias_initializer": {"config": {}, "class_name": "Zeros"}, "filters": 128, "activation": "linear", "kernel_regularizer": null, "bias_constraint": null, "kernel_initializer": {"config": {"seed": null, "scale": 2.0, "mode": "fan_in", "distribution": "normal"}, "class_name": "VarianceScaling"}, "trainable": false, "strides": [1, 1], "activity_regularizer": null, "kernel_constraint": null, "bias_regularizer": null, "kernel_size": [3, 3], "dilation_rate": [1, 1], "padding": "same", "use_bias": true, "data_format": "channels_last"}, "class_name": "Conv2D", "inbound_nodes": [[["activation_259", 0, 0, {}]]]}, {"name": "bn3b_branch2b", "config": {"name": "bn3b_branch2b", "gamma_constraint": null, "axis": 3, "momentum": 0.99, "trainable": false, "epsilon": 0.001, "moving_mean_initializer": {"config": {}, "class_name": "Zeros"}, "gamma_initializer": {"config": {}, "class_name": "Ones"}, "beta_constraint": null, "scale": true, "gamma_regularizer": null, "beta_regularizer": null, "center": true, "moving_variance_initializer": {"config": {}, "class_name": "Ones"}, "beta_initializer": {"config": {}, "class_name": "Zeros"}}, "class_name": "BatchNormalization", "inbound_nodes": [[["res3b_branch2b", 0, 0, {}]]]}, {"name": "activation_260", "config": {"name": "activation_260", "trainable": false, "activation": "relu"}, "class_name": "Activation", "inbound_nodes": [[["bn3b_branch2b", 0, 0, {}]]]}, {"name": "res3b_branch2c", "config": {"name": "res3b_branch2c", "bias_initializer": {"config": {}, "class_name": "Zeros"}, "filters": 512, "activation": "linear", "kernel_regularizer": null, "bias_constraint": null, "kernel_initializer": {"config": {"seed": null, "scale": 2.0, "mode": "fan_in", "distribution": "normal"}, "class_name": "VarianceScaling"}, "trainable": false, "strides": [1, 1], "activity_regularizer": null, "kernel_constraint": null, "bias_regularizer": null, "kernel_size": [1, 1], "dilation_rate": [1, 1], "padding": "valid", "use_bias": true, "data_format": "channels_last"}, "class_name": "Conv2D", "inbound_nodes": [[["activation_260", 0, 0, {}]]]}, {"name": "bn3b_branch2c", "config": {"name": "bn3b_branch2c", "gamma_constraint": null, "axis": 3, "momentum": 0.99, "trainable": false, "epsilon": 0.001, "moving_mean_initializer": {"config": {}, "class_name": "Zeros"}, "gamma_initializer": {"config": {}, "class_name": "Ones"}, "beta_constraint": null, "scale": true, "gamma_regularizer": null, "beta_regularizer": null, "center": true, "moving_variance_initializer": {"config": {}, "class_name": "Ones"}, "beta_initializer": {"config": {}, "class_name": "Zeros"}}, "class_name": "BatchNormalization", "inbound_nodes": [[["res3b_branch2c", 0, 0, {}]]]}, {"name": "add_85", "config": {"name": "add_85", "trainable": false}, "class_name": "Add", "inbound_nodes": [[["bn3b_branch2c", 0, 0, {}], ["activation_258", 0, 0, {}]]]}, {"name": "activation_261", "config": {"name": "activation_261", "trainable": false, "activation": "relu"}, "class_name": "Activation", "inbound_nodes": [[["add_85", 0, 0, {}]]]}, {"name": "res3c_branch2a", "config": {"name": "res3c_branch2a", "bias_initializer": {"config": {}, "class_name": "Zeros"}, "filters": 128, "activation": "linear", "kernel_regularizer": null, "bias_constraint": null, "kernel_initializer": {"config": {"seed": null, "scale": 2.0, "mode": "fan_in", "distribution": "normal"}, "class_name": "VarianceScaling"}, "trainable": false, "strides": [1, 1], "activity_regularizer": null, "kernel_constraint": null, "bias_regularizer": null, "kernel_size": [1, 1], "dilation_rate": [1, 1], "padding": "valid", "use_bias": true, "data_format": "channels_last"}, "class_name": "Conv2D", "inbound_nodes": [[["activation_261", 0, 0, {}]]]}, {"name": "bn3c_branch2a", "config": {"name": "bn3c_branch2a", "gamma_constraint": null, "axis": 3, "momentum": 0.99, "trainable": false, "epsilon": 0.001, "moving_mean_initializer": {"config": {}, "class_name": "Zeros"}, "gamma_initializer": {"config": {}, "class_name": "Ones"}, "beta_constraint": null, "scale": true, "gamma_regularizer": null, "beta_regularizer": null, "center": true, "moving_variance_initializer": {"config": {}, "class_name": "Ones"}, "beta_initializer": {"config": {}, "class_name": "Zeros"}}, "class_name": "BatchNormalization", "inbound_nodes": [[["res3c_branch2a", 0, 0, {}]]]}, {"name": "activation_262", "config": {"name": "activation_262", "trainable": false, "activation": "relu"}, "class_name": "Activation", "inbound_nodes": [[["bn3c_branch2a", 0, 0, {}]]]}, {"name": "res3c_branch2b", "config": {"name": "res3c_branch2b", "bias_initializer": {"config": {}, "class_name": "Zeros"}, "filters": 128, "activation": "linear", "kernel_regularizer": null, "bias_constraint": null, "kernel_initializer": {"config": {"seed": null, "scale": 2.0, "mode": "fan_in", "distribution": "normal"}, "class_name": "VarianceScaling"}, "trainable": false, "strides": [1, 1], "activity_regularizer": null, "kernel_constraint": null, "bias_regularizer": null, "kernel_size": [3, 3], "dilation_rate": [1, 1], "padding": "same", "use_bias": true, "data_format": "channels_last"}, "class_name": "Conv2D", "inbound_nodes": [[["activation_262", 0, 0, {}]]]}, {"name": "bn3c_branch2b", "config": {"name": "bn3c_branch2b", "gamma_constraint": null, "axis": 3, "momentum": 0.99, "trainable": false, "epsilon": 0.001, "moving_mean_initializer": {"config": {}, "class_name": "Zeros"}, "gamma_initializer": {"config": {}, "class_name": "Ones"}, "beta_constraint": null, "scale": true, "gamma_regularizer": null, "beta_regularizer": null, "center": true, "moving_variance_initializer": {"config": {}, "class_name": "Ones"}, "beta_initializer": {"config": {}, "class_name": "Zeros"}}, "class_name": "BatchNormalization", "inbound_nodes": [[["res3c_branch2b", 0, 0, {}]]]}, {"name": "activation_263", "config": {"name": "activation_263", "trainable": false, "activation": "relu"}, "class_name": "Activation", "inbound_nodes": [[["bn3c_branch2b", 0, 0, {}]]]}, {"name": "res3c_branch2c", "config": {"name": "res3c_branch2c", "bias_initializer": {"config": {}, "class_name": "Zeros"}, "filters": 512, "activation": "linear", "kernel_regularizer": null, "bias_constraint": null, "kernel_initializer": {"config": {"seed": null, "scale": 2.0, "mode": "fan_in", "distribution": "normal"}, "class_name": "VarianceScaling"}, "trainable": false, "strides": [1, 1], "activity_regularizer": null, "kernel_constraint": null, "bias_regularizer": null, "kernel_size": [1, 1], "dilation_rate": [1, 1], "padding": "valid", "use_bias": true, "data_format": "channels_last"}, "class_name": "Conv2D", "inbound_nodes": [[["activation_263", 0, 0, {}]]]}, {"name": "bn3c_branch2c", "config": {"name": "bn3c_branch2c", "gamma_constraint": null, "axis": 3, "momentum": 0.99, "trainable": false, "epsilon": 0.001, "moving_mean_initializer": {"config": {}, "class_name": "Zeros"}, "gamma_initializer": {"config": {}, "class_name": "Ones"}, "beta_constraint": null, "scale": true, "gamma_regularizer": null, "beta_regularizer": null, "center": true, "moving_variance_initializer": {"config": {}, "class_name": "Ones"}, "beta_initializer": {"config": {}, "class_name": "Zeros"}}, "class_name": "BatchNormalization", "inbound_nodes": [[["res3c_branch2c", 0, 0, {}]]]}, {"name": "add_86", "config": {"name": "add_86", "trainable": false}, "class_name": "Add", "inbound_nodes": [[["bn3c_branch2c", 0, 0, {}], ["activation_261", 0, 0, {}]]]}, {"name": "activation_264", "config": {"name": "activation_264", "trainable": false, "activation": "relu"}, "class_name": "Activation", "inbound_nodes": [[["add_86", 0, 0, {}]]]}, {"name": "res3d_branch2a", "config": {"name": "res3d_branch2a", "bias_initializer": {"config": {}, "class_name": "Zeros"}, "filters": 128, "activation": "linear", "kernel_regularizer": null, "bias_constraint": null, "kernel_initializer": {"config": {"seed": null, "scale": 2.0, "mode": "fan_in", "distribution": "normal"}, "class_name": "VarianceScaling"}, "trainable": false, "strides": [1, 1], "activity_regularizer": null, "kernel_constraint": null, "bias_regularizer": null, "kernel_size": [1, 1], "dilation_rate": [1, 1], "padding": "valid", "use_bias": true, "data_format": "channels_last"}, "class_name": "Conv2D", "inbound_nodes": [[["activation_264", 0, 0, {}]]]}, {"name": "bn3d_branch2a", "config": {"name": "bn3d_branch2a", "gamma_constraint": null, "axis": 3, "momentum": 0.99, "trainable": false, "epsilon": 0.001, "moving_mean_initializer": {"config": {}, "class_name": "Zeros"}, "gamma_initializer": {"config": {}, "class_name": "Ones"}, "beta_constraint": null, "scale": true, "gamma_regularizer": null, "beta_regularizer": null, "center": true, "moving_variance_initializer": {"config": {}, "class_name": "Ones"}, "beta_initializer": {"config": {}, "class_name": "Zeros"}}, "class_name": "BatchNormalization", "inbound_nodes": [[["res3d_branch2a", 0, 0, {}]]]}, {"name": "activation_265", "config": {"name": "activation_265", "trainable": false, "activation": "relu"}, "class_name": "Activation", "inbound_nodes": [[["bn3d_branch2a", 0, 0, {}]]]}, {"name": "res3d_branch2b", "config": {"name": "res3d_branch2b", "bias_initializer": {"config": {}, "class_name": "Zeros"}, "filters": 128, "activation": "linear", "kernel_regularizer": null, "bias_constraint": null, "kernel_initializer": {"config": {"seed": null, "scale": 2.0, "mode": "fan_in", "distribution": "normal"}, "class_name": "VarianceScaling"}, "trainable": false, "strides": [1, 1], "activity_regularizer": null, "kernel_constraint": null, "bias_regularizer": null, "kernel_size": [3, 3], "dilation_rate": [1, 1], "padding": "same", "use_bias": true, "data_format": "channels_last"}, "class_name": "Conv2D", "inbound_nodes": [[["activation_265", 0, 0, {}]]]}, {"name": "bn3d_branch2b", "config": {"name": "bn3d_branch2b", "gamma_constraint": null, "axis": 3, "momentum": 0.99, "trainable": false, "epsilon": 0.001, "moving_mean_initializer": {"config": {}, "class_name": "Zeros"}, "gamma_initializer": {"config": {}, "class_name": "Ones"}, "beta_constraint": null, "scale": true, "gamma_regularizer": null, "beta_regularizer": null, "center": true, "moving_variance_initializer": {"config": {}, "class_name": "Ones"}, "beta_initializer": {"config": {}, "class_name": "Zeros"}}, "class_name": "BatchNormalization", "inbound_nodes": [[["res3d_branch2b", 0, 0, {}]]]}, {"name": "activation_266", "config": {"name": "activation_266", "trainable": false, "activation": "relu"}, "class_name": "Activation", "inbound_nodes": [[["bn3d_branch2b", 0, 0, {}]]]}, {"name": "res3d_branch2c", "config": {"name": "res3d_branch2c", "bias_initializer": {"config": {}, "class_name": "Zeros"}, "filters": 512, "activation": "linear", "kernel_regularizer": null, "bias_constraint": null, "kernel_initializer": {"config": {"seed": null, "scale": 2.0, "mode": "fan_in", "distribution": "normal"}, "class_name": "VarianceScaling"}, "trainable": false, "strides": [1, 1], "activity_regularizer": null, "kernel_constraint": null, "bias_regularizer": null, "kernel_size": [1, 1], "dilation_rate": [1, 1], "padding": "valid", "use_bias": true, "data_format": "channels_last"}, "class_name": "Conv2D", "inbound_nodes": [[["activation_266", 0, 0, {}]]]}, {"name": "bn3d_branch2c", "config": {"name": "bn3d_branch2c", "gamma_constraint": null, "axis": 3, "momentum": 0.99, "trainable": false, "epsilon": 0.001, "moving_mean_initializer": {"config": {}, "class_name": "Zeros"}, "gamma_initializer": {"config": {}, "class_name": "Ones"}, "beta_constraint": null, "scale": true, "gamma_regularizer": null, "beta_regularizer": null, "center": true, "moving_variance_initializer": {"config": {}, "class_name": "Ones"}, "beta_initializer": {"config": {}, "class_name": "Zeros"}}, "class_name": "BatchNormalization", "inbound_nodes": [[["res3d_branch2c", 0, 0, {}]]]}, {"name": "add_87", "config": {"name": "add_87", "trainable": false}, "class_name": "Add", "inbound_nodes": [[["bn3d_branch2c", 0, 0, {}], ["activation_264", 0, 0, {}]]]}, {"name": "activation_267", "config": {"name": "activation_267", "trainable": false, "activation": "relu"}, "class_name": "Activation", "inbound_nodes": [[["add_87", 0, 0, {}]]]}, {"name": "res4a_branch2a", "config": {"name": "res4a_branch2a", "bias_initializer": {"config": {}, "class_name": "Zeros"}, "filters": 256, "activation": "linear", "kernel_regularizer": null, "bias_constraint": null, "kernel_initializer": {"config": {"seed": null, "scale": 2.0, "mode": "fan_in", "distribution": "normal"}, "class_name": "VarianceScaling"}, "trainable": false, "strides": [2, 2], "activity_regularizer": null, "kernel_constraint": null, "bias_regularizer": null, "kernel_size": [1, 1], "dilation_rate": [1, 1], "padding": "valid", "use_bias": true, "data_format": "channels_last"}, "class_name": "Conv2D", "inbound_nodes": [[["activation_267", 0, 0, {}]]]}, {"name": "bn4a_branch2a", "config": {"name": "bn4a_branch2a", "gamma_constraint": null, "axis": 3, "momentum": 0.99, "trainable": false, "epsilon": 0.001, "moving_mean_initializer": {"config": {}, "class_name": "Zeros"}, "gamma_initializer": {"config": {}, "class_name": "Ones"}, "beta_constraint": null, "scale": true, "gamma_regularizer": null, "beta_regularizer": null, "center": true, "moving_variance_initializer": {"config": {}, "class_name": "Ones"}, "beta_initializer": {"config": {}, "class_name": "Zeros"}}, "class_name": "BatchNormalization", "inbound_nodes": [[["res4a_branch2a", 0, 0, {}]]]}, {"name": "activation_268", "config": {"name": "activation_268", "trainable": false, "activation": "relu"}, "class_name": "Activation", "inbound_nodes": [[["bn4a_branch2a", 0, 0, {}]]]}, {"name": "res4a_branch2b", "config": {"name": "res4a_branch2b", "bias_initializer": {"config": {}, "class_name": "Zeros"}, "filters": 256, "activation": "linear", "kernel_regularizer": null, "bias_constraint": null, "kernel_initializer": {"config": {"seed": null, "scale": 2.0, "mode": "fan_in", "distribution": "normal"}, "class_name": "VarianceScaling"}, "trainable": false, "strides": [1, 1], "activity_regularizer": null, "kernel_constraint": null, "bias_regularizer": null, "kernel_size": [3, 3], "dilation_rate": [1, 1], "padding": "same", "use_bias": true, "data_format": "channels_last"}, "class_name": "Conv2D", "inbound_nodes": [[["activation_268", 0, 0, {}]]]}, {"name": "bn4a_branch2b", "config": {"name": "bn4a_branch2b", "gamma_constraint": null, "axis": 3, "momentum": 0.99, "trainable": false, "epsilon": 0.001, "moving_mean_initializer": {"config": {}, "class_name": "Zeros"}, "gamma_initializer": {"config": {}, "class_name": "Ones"}, "beta_constraint": null, "scale": true, "gamma_regularizer": null, "beta_regularizer": null, "center": true, "moving_variance_initializer": {"config": {}, "class_name": "Ones"}, "beta_initializer": {"config": {}, "class_name": "Zeros"}}, "class_name": "BatchNormalization", "inbound_nodes": [[["res4a_branch2b", 0, 0, {}]]]}, {"name": "activation_269", "config": {"name": "activation_269", "trainable": false, "activation": "relu"}, "class_name": "Activation", "inbound_nodes": [[["bn4a_branch2b", 0, 0, {}]]]}, {"name": "res4a_branch2c", "config": {"name": "res4a_branch2c", "bias_initializer": {"config": {}, "class_name": "Zeros"}, "filters": 1024, "activation": "linear", "kernel_regularizer": null, "bias_constraint": null, "kernel_initializer": {"config": {"seed": null, "scale": 2.0, "mode": "fan_in", "distribution": "normal"}, "class_name": "VarianceScaling"}, "trainable": false, "strides": [1, 1], "activity_regularizer": null, "kernel_constraint": null, "bias_regularizer": null, "kernel_size": [1, 1], "dilation_rate": [1, 1], "padding": "valid", "use_bias": true, "data_format": "channels_last"}, "class_name": "Conv2D", "inbound_nodes": [[["activation_269", 0, 0, {}]]]}, {"name": "res4a_branch1", "config": {"name": "res4a_branch1", "bias_initializer": {"config": {}, "class_name": "Zeros"}, "filters": 1024, "activation": "linear", "kernel_regularizer": null, "bias_constraint": null, "kernel_initializer": {"config": {"seed": null, "scale": 2.0, "mode": "fan_in", "distribution": "normal"}, "class_name": "VarianceScaling"}, "trainable": false, "strides": [2, 2], "activity_regularizer": null, "kernel_constraint": null, "bias_regularizer": null, "kernel_size": [1, 1], "dilation_rate": [1, 1], "padding": "valid", "use_bias": true, "data_format": "channels_last"}, "class_name": "Conv2D", "inbound_nodes": [[["activation_267", 0, 0, {}]]]}, {"name": "bn4a_branch2c", "config": {"name": "bn4a_branch2c", "gamma_constraint": null, "axis": 3, "momentum": 0.99, "trainable": false, "epsilon": 0.001, "moving_mean_initializer": {"config": {}, "class_name": "Zeros"}, "gamma_initializer": {"config": {}, "class_name": "Ones"}, "beta_constraint": null, "scale": true, "gamma_regularizer": null, "beta_regularizer": null, "center": true, "moving_variance_initializer": {"config": {}, "class_name": "Ones"}, "beta_initializer": {"config": {}, "class_name": "Zeros"}}, "class_name": "BatchNormalization", "inbound_nodes": [[["res4a_branch2c", 0, 0, {}]]]}, {"name": "bn4a_branch1", "config": {"name": "bn4a_branch1", "gamma_constraint": null, "axis": 3, "momentum": 0.99, "trainable": false, "epsilon": 0.001, "moving_mean_initializer": {"config": {}, "class_name": "Zeros"}, "gamma_initializer": {"config": {}, "class_name": "Ones"}, "beta_constraint": null, "scale": true, "gamma_regularizer": null, "beta_regularizer": null, "center": true, "moving_variance_initializer": {"config": {}, "class_name": "Ones"}, "beta_initializer": {"config": {}, "class_name": "Zeros"}}, "class_name": "BatchNormalization", "inbound_nodes": [[["res4a_branch1", 0, 0, {}]]]}, {"name": "add_88", "config": {"name": "add_88", "trainable": false}, "class_name": "Add", "inbound_nodes": [[["bn4a_branch2c", 0, 0, {}], ["bn4a_branch1", 0, 0, {}]]]}, {"name": "activation_270", "config": {"name": "activation_270", "trainable": false, "activation": "relu"}, "class_name": "Activation", "inbound_nodes": [[["add_88", 0, 0, {}]]]}, {"name": "res4b_branch2a", "config": {"name": "res4b_branch2a", "bias_initializer": {"config": {}, "class_name": "Zeros"}, "filters": 256, "activation": "linear", "kernel_regularizer": null, "bias_constraint": null, "kernel_initializer": {"config": {"seed": null, "scale": 2.0, "mode": "fan_in", "distribution": "normal"}, "class_name": "VarianceScaling"}, "trainable": false, "strides": [1, 1], "activity_regularizer": null, "kernel_constraint": null, "bias_regularizer": null, "kernel_size": [1, 1], "dilation_rate": [1, 1], "padding": "valid", "use_bias": true, "data_format": "channels_last"}, "class_name": "Conv2D", "inbound_nodes": [[["activation_270", 0, 0, {}]]]}, {"name": "bn4b_branch2a", "config": {"name": "bn4b_branch2a", "gamma_constraint": null, "axis": 3, "momentum": 0.99, "trainable": false, "epsilon": 0.001, "moving_mean_initializer": {"config": {}, "class_name": "Zeros"}, "gamma_initializer": {"config": {}, "class_name": "Ones"}, "beta_constraint": null, "scale": true, "gamma_regularizer": null, "beta_regularizer": null, "center": true, "moving_variance_initializer": {"config": {}, "class_name": "Ones"}, "beta_initializer": {"config": {}, "class_name": "Zeros"}}, "class_name": "BatchNormalization", "inbound_nodes": [[["res4b_branch2a", 0, 0, {}]]]}, {"name": "activation_271", "config": {"name": "activation_271", "trainable": false, "activation": "relu"}, "class_name": "Activation", "inbound_nodes": [[["bn4b_branch2a", 0, 0, {}]]]}, {"name": "res4b_branch2b", "config": {"name": "res4b_branch2b", "bias_initializer": {"config": {}, "class_name": "Zeros"}, "filters": 256, "activation": "linear", "kernel_regularizer": null, "bias_constraint": null, "kernel_initializer": {"config": {"seed": null, "scale": 2.0, "mode": "fan_in", "distribution": "normal"}, "class_name": "VarianceScaling"}, "trainable": false, "strides": [1, 1], "activity_regularizer": null, "kernel_constraint": null, "bias_regularizer": null, "kernel_size": [3, 3], "dilation_rate": [1, 1], "padding": "same", "use_bias": true, "data_format": "channels_last"}, "class_name": "Conv2D", "inbound_nodes": [[["activation_271", 0, 0, {}]]]}, {"name": "bn4b_branch2b", "config": {"name": "bn4b_branch2b", "gamma_constraint": null, "axis": 3, "momentum": 0.99, "trainable": false, "epsilon": 0.001, "moving_mean_initializer": {"config": {}, "class_name": "Zeros"}, "gamma_initializer": {"config": {}, "class_name": "Ones"}, "beta_constraint": null, "scale": true, "gamma_regularizer": null, "beta_regularizer": null, "center": true, "moving_variance_initializer": {"config": {}, "class_name": "Ones"}, "beta_initializer": {"config": {}, "class_name": "Zeros"}}, "class_name": "BatchNormalization", "inbound_nodes": [[["res4b_branch2b", 0, 0, {}]]]}, {"name": "activation_272", "config": {"name": "activation_272", "trainable": false, "activation": "relu"}, "class_name": "Activation", "inbound_nodes": [[["bn4b_branch2b", 0, 0, {}]]]}, {"name": "res4b_branch2c", "config": {"name": "res4b_branch2c", "bias_initializer": {"config": {}, "class_name": "Zeros"}, "filters": 1024, "activation": "linear", "kernel_regularizer": null, "bias_constraint": null, "kernel_initializer": {"config": {"seed": null, "scale": 2.0, "mode": "fan_in", "distribution": "normal"}, "class_name": "VarianceScaling"}, "trainable": false, "strides": [1, 1], "activity_regularizer": null, "kernel_constraint": null, "bias_regularizer": null, "kernel_size": [1, 1], "dilation_rate": [1, 1], "padding": "valid", "use_bias": true, "data_format": "channels_last"}, "class_name": "Conv2D", "inbound_nodes": [[["activation_272", 0, 0, {}]]]}, {"name": "bn4b_branch2c", "config": {"name": "bn4b_branch2c", "gamma_constraint": null, "axis": 3, "momentum": 0.99, "trainable": false, "epsilon": 0.001, "moving_mean_initializer": {"config": {}, "class_name": "Zeros"}, "gamma_initializer": {"config": {}, "class_name": "Ones"}, "beta_constraint": null, "scale": true, "gamma_regularizer": null, "beta_regularizer": null, "center": true, "moving_variance_initializer": {"config": {}, "class_name": "Ones"}, "beta_initializer": {"config": {}, "class_name": "Zeros"}}, "class_name": "BatchNormalization", "inbound_nodes": [[["res4b_branch2c", 0, 0, {}]]]}, {"name": "add_89", "config": {"name": "add_89", "trainable": false}, "class_name": "Add", "inbound_nodes": [[["bn4b_branch2c", 0, 0, {}], ["activation_270", 0, 0, {}]]]}, {"name": "activation_273", "config": {"name": "activation_273", "trainable": false, "activation": "relu"}, "class_name": "Activation", "inbound_nodes": [[["add_89", 0, 0, {}]]]}, {"name": "res4c_branch2a", "config": {"name": "res4c_branch2a", "bias_initializer": {"config": {}, "class_name": "Zeros"}, "filters": 256, "activation": "linear", "kernel_regularizer": null, "bias_constraint": null, "kernel_initializer": {"config": {"seed": null, "scale": 2.0, "mode": "fan_in", "distribution": "normal"}, "class_name": "VarianceScaling"}, "trainable": false, "strides": [1, 1], "activity_regularizer": null, "kernel_constraint": null, "bias_regularizer": null, "kernel_size": [1, 1], "dilation_rate": [1, 1], "padding": "valid", "use_bias": true, "data_format": "channels_last"}, "class_name": "Conv2D", "inbound_nodes": [[["activation_273", 0, 0, {}]]]}, {"name": "bn4c_branch2a", "config": {"name": "bn4c_branch2a", "gamma_constraint": null, "axis": 3, "momentum": 0.99, "trainable": false, "epsilon": 0.001, "moving_mean_initializer": {"config": {}, "class_name": "Zeros"}, "gamma_initializer": {"config": {}, "class_name": "Ones"}, "beta_constraint": null, "scale": true, "gamma_regularizer": null, "beta_regularizer": null, "center": true, "moving_variance_initializer": {"config": {}, "class_name": "Ones"}, "beta_initializer": {"config": {}, "class_name": "Zeros"}}, "class_name": "BatchNormalization", "inbound_nodes": [[["res4c_branch2a", 0, 0, {}]]]}, {"name": "activation_274", "config": {"name": "activation_274", "trainable": false, "activation": "relu"}, "class_name": "Activation", "inbound_nodes": [[["bn4c_branch2a", 0, 0, {}]]]}, {"name": "res4c_branch2b", "config": {"name": "res4c_branch2b", "bias_initializer": {"config": {}, "class_name": "Zeros"}, "filters": 256, "activation": "linear", "kernel_regularizer": null, "bias_constraint": null, "kernel_initializer": {"config": {"seed": null, "scale": 2.0, "mode": "fan_in", "distribution": "normal"}, "class_name": "VarianceScaling"}, "trainable": false, "strides": [1, 1], "activity_regularizer": null, "kernel_constraint": null, "bias_regularizer": null, "kernel_size": [3, 3], "dilation_rate": [1, 1], "padding": "same", "use_bias": true, "data_format": "channels_last"}, "class_name": "Conv2D", "inbound_nodes": [[["activation_274", 0, 0, {}]]]}, {"name": "bn4c_branch2b", "config": {"name": "bn4c_branch2b", "gamma_constraint": null, "axis": 3, "momentum": 0.99, "trainable": false, "epsilon": 0.001, "moving_mean_initializer": {"config": {}, "class_name": "Zeros"}, "gamma_initializer": {"config": {}, "class_name": "Ones"}, "beta_constraint": null, "scale": true, "gamma_regularizer": null, "beta_regularizer": null, "center": true, "moving_variance_initializer": {"config": {}, "class_name": "Ones"}, "beta_initializer": {"config": {}, "class_name": "Zeros"}}, "class_name": "BatchNormalization", "inbound_nodes": [[["res4c_branch2b", 0, 0, {}]]]}, {"name": "activation_275", "config": {"name": "activation_275", "trainable": false, "activation": "relu"}, "class_name": "Activation", "inbound_nodes": [[["bn4c_branch2b", 0, 0, {}]]]}, {"name": "res4c_branch2c", "config": {"name": "res4c_branch2c", "bias_initializer": {"config": {}, "class_name": "Zeros"}, "filters": 1024, "activation": "linear", "kernel_regularizer": null, "bias_constraint": null, "kernel_initializer": {"config": {"seed": null, "scale": 2.0, "mode": "fan_in", "distribution": "normal"}, "class_name": "VarianceScaling"}, "trainable": false, "strides": [1, 1], "activity_regularizer": null, "kernel_constraint": null, "bias_regularizer": null, "kernel_size": [1, 1], "dilation_rate": [1, 1], "padding": "valid", "use_bias": true, "data_format": "channels_last"}, "class_name": "Conv2D", "inbound_nodes": [[["activation_275", 0, 0, {}]]]}, {"name": "bn4c_branch2c", "config": {"name": "bn4c_branch2c", "gamma_constraint": null, "axis": 3, "momentum": 0.99, "trainable": false, "epsilon": 0.001, "moving_mean_initializer": {"config": {}, "class_name": "Zeros"}, "gamma_initializer": {"config": {}, "class_name": "Ones"}, "beta_constraint": null, "scale": true, "gamma_regularizer": null, "beta_regularizer": null, "center": true, "moving_variance_initializer": {"config": {}, "class_name": "Ones"}, "beta_initializer": {"config": {}, "class_name": "Zeros"}}, "class_name": "BatchNormalization", "inbound_nodes": [[["res4c_branch2c", 0, 0, {}]]]}, {"name": "add_90", "config": {"name": "add_90", "trainable": false}, "class_name": "Add", "inbound_nodes": [[["bn4c_branch2c", 0, 0, {}], ["activation_273", 0, 0, {}]]]}, {"name": "activation_276", "config": {"name": "activation_276", "trainable": false, "activation": "relu"}, "class_name": "Activation", "inbound_nodes": [[["add_90", 0, 0, {}]]]}, {"name": "res4d_branch2a", "config": {"name": "res4d_branch2a", "bias_initializer": {"config": {}, "class_name": "Zeros"}, "filters": 256, "activation": "linear", "kernel_regularizer": null, "bias_constraint": null, "kernel_initializer": {"config": {"seed": null, "scale": 2.0, "mode": "fan_in", "distribution": "normal"}, "class_name": "VarianceScaling"}, "trainable": false, "strides": [1, 1], "activity_regularizer": null, "kernel_constraint": null, "bias_regularizer": null, "kernel_size": [1, 1], "dilation_rate": [1, 1], "padding": "valid", "use_bias": true, "data_format": "channels_last"}, "class_name": "Conv2D", "inbound_nodes": [[["activation_276", 0, 0, {}]]]}, {"name": "bn4d_branch2a", "config": {"name": "bn4d_branch2a", "gamma_constraint": null, "axis": 3, "momentum": 0.99, "trainable": false, "epsilon": 0.001, "moving_mean_initializer": {"config": {}, "class_name": "Zeros"}, "gamma_initializer": {"config": {}, "class_name": "Ones"}, "beta_constraint": null, "scale": true, "gamma_regularizer": null, "beta_regularizer": null, "center": true, "moving_variance_initializer": {"config": {}, "class_name": "Ones"}, "beta_initializer": {"config": {}, "class_name": "Zeros"}}, "class_name": "BatchNormalization", "inbound_nodes": [[["res4d_branch2a", 0, 0, {}]]]}, {"name": "activation_277", "config": {"name": "activation_277", "trainable": false, "activation": "relu"}, "class_name": "Activation", "inbound_nodes": [[["bn4d_branch2a", 0, 0, {}]]]}, {"name": "res4d_branch2b", "config": {"name": "res4d_branch2b", "bias_initializer": {"config": {}, "class_name": "Zeros"}, "filters": 256, "activation": "linear", "kernel_regularizer": null, "bias_constraint": null, "kernel_initializer": {"config": {"seed": null, "scale": 2.0, "mode": "fan_in", "distribution": "normal"}, "class_name": "VarianceScaling"}, "trainable": false, "strides": [1, 1], "activity_regularizer": null, "kernel_constraint": null, "bias_regularizer": null, "kernel_size": [3, 3], "dilation_rate": [1, 1], "padding": "same", "use_bias": true, "data_format": "channels_last"}, "class_name": "Conv2D", "inbound_nodes": [[["activation_277", 0, 0, {}]]]}, {"name": "bn4d_branch2b", "config": {"name": "bn4d_branch2b", "gamma_constraint": null, "axis": 3, "momentum": 0.99, "trainable": false, "epsilon": 0.001, "moving_mean_initializer": {"config": {}, "class_name": "Zeros"}, "gamma_initializer": {"config": {}, "class_name": "Ones"}, "beta_constraint": null, "scale": true, "gamma_regularizer": null, "beta_regularizer": null, "center": true, "moving_variance_initializer": {"config": {}, "class_name": "Ones"}, "beta_initializer": {"config": {}, "class_name": "Zeros"}}, "class_name": "BatchNormalization", "inbound_nodes": [[["res4d_branch2b", 0, 0, {}]]]}, {"name": "activation_278", "config": {"name": "activation_278", "trainable": false, "activation": "relu"}, "class_name": "Activation", "inbound_nodes": [[["bn4d_branch2b", 0, 0, {}]]]}, {"name": "res4d_branch2c", "config": {"name": "res4d_branch2c", "bias_initializer": {"config": {}, "class_name": "Zeros"}, "filters": 1024, "activation": "linear", "kernel_regularizer": null, "bias_constraint": null, "kernel_initializer": {"config": {"seed": null, "scale": 2.0, "mode": "fan_in", "distribution": "normal"}, "class_name": "VarianceScaling"}, "trainable": false, "strides": [1, 1], "activity_regularizer": null, "kernel_constraint": null, "bias_regularizer": null, "kernel_size": [1, 1], "dilation_rate": [1, 1], "padding": "valid", "use_bias": true, "data_format": "channels_last"}, "class_name": "Conv2D", "inbound_nodes": [[["activation_278", 0, 0, {}]]]}, {"name": "bn4d_branch2c", "config": {"name": "bn4d_branch2c", "gamma_constraint": null, "axis": 3, "momentum": 0.99, "trainable": false, "epsilon": 0.001, "moving_mean_initializer": {"config": {}, "class_name": "Zeros"}, "gamma_initializer": {"config": {}, "class_name": "Ones"}, "beta_constraint": null, "scale": true, "gamma_regularizer": null, "beta_regularizer": null, "center": true, "moving_variance_initializer": {"config": {}, "class_name": "Ones"}, "beta_initializer": {"config": {}, "class_name": "Zeros"}}, "class_name": "BatchNormalization", "inbound_nodes": [[["res4d_branch2c", 0, 0, {}]]]}, {"name": "add_91", "config": {"name": "add_91", "trainable": false}, "class_name": "Add", "inbound_nodes": [[["bn4d_branch2c", 0, 0, {}], ["activation_276", 0, 0, {}]]]}, {"name": "activation_279", "config": {"name": "activation_279", "trainable": false, "activation": "relu"}, "class_name": "Activation", "inbound_nodes": [[["add_91", 0, 0, {}]]]}, {"name": "res4e_branch2a", "config": {"name": "res4e_branch2a", "bias_initializer": {"config": {}, "class_name": "Zeros"}, "filters": 256, "activation": "linear", "kernel_regularizer": null, "bias_constraint": null, "kernel_initializer": {"config": {"seed": null, "scale": 2.0, "mode": "fan_in", "distribution": "normal"}, "class_name": "VarianceScaling"}, "trainable": false, "strides": [1, 1], "activity_regularizer": null, "kernel_constraint": null, "bias_regularizer": null, "kernel_size": [1, 1], "dilation_rate": [1, 1], "padding": "valid", "use_bias": true, "data_format": "channels_last"}, "class_name": "Conv2D", "inbound_nodes": [[["activation_279", 0, 0, {}]]]}, {"name": "bn4e_branch2a", "config": {"name": "bn4e_branch2a", "gamma_constraint": null, "axis": 3, "momentum": 0.99, "trainable": false, "epsilon": 0.001, "moving_mean_initializer": {"config": {}, "class_name": "Zeros"}, "gamma_initializer": {"config": {}, "class_name": "Ones"}, "beta_constraint": null, "scale": true, "gamma_regularizer": null, "beta_regularizer": null, "center": true, "moving_variance_initializer": {"config": {}, "class_name": "Ones"}, "beta_initializer": {"config": {}, "class_name": "Zeros"}}, "class_name": "BatchNormalization", "inbound_nodes": [[["res4e_branch2a", 0, 0, {}]]]}, {"name": "activation_280", "config": {"name": "activation_280", "trainable": false, "activation": "relu"}, "class_name": "Activation", "inbound_nodes": [[["bn4e_branch2a", 0, 0, {}]]]}, {"name": "res4e_branch2b", "config": {"name": "res4e_branch2b", "bias_initializer": {"config": {}, "class_name": "Zeros"}, "filters": 256, "activation": "linear", "kernel_regularizer": null, "bias_constraint": null, "kernel_initializer": {"config": {"seed": null, "scale": 2.0, "mode": "fan_in", "distribution": "normal"}, "class_name": "VarianceScaling"}, "trainable": false, "strides": [1, 1], "activity_regularizer": null, "kernel_constraint": null, "bias_regularizer": null, "kernel_size": [3, 3], "dilation_rate": [1, 1], "padding": "same", "use_bias": true, "data_format": "channels_last"}, "class_name": "Conv2D", "inbound_nodes": [[["activation_280", 0, 0, {}]]]}, {"name": "bn4e_branch2b", "config": {"name": "bn4e_branch2b", "gamma_constraint": null, "axis": 3, "momentum": 0.99, "trainable": false, "epsilon": 0.001, "moving_mean_initializer": {"config": {}, "class_name": "Zeros"}, "gamma_initializer": {"config": {}, "class_name": "Ones"}, "beta_constraint": null, "scale": true, "gamma_regularizer": null, "beta_regularizer": null, "center": true, "moving_variance_initializer": {"config": {}, "class_name": "Ones"}, "beta_initializer": {"config": {}, "class_name": "Zeros"}}, "class_name": "BatchNormalization", "inbound_nodes": [[["res4e_branch2b", 0, 0, {}]]]}, {"name": "activation_281", "config": {"name": "activation_281", "trainable": false, "activation": "relu"}, "class_name": "Activation", "inbound_nodes": [[["bn4e_branch2b", 0, 0, {}]]]}, {"name": "res4e_branch2c", "config": {"name": "res4e_branch2c", "bias_initializer": {"config": {}, "class_name": "Zeros"}, "filters": 1024, "activation": "linear", "kernel_regularizer": null, "bias_constraint": null, "kernel_initializer": {"config": {"seed": null, "scale": 2.0, "mode": "fan_in", "distribution": "normal"}, "class_name": "VarianceScaling"}, "trainable": false, "strides": [1, 1], "activity_regularizer": null, "kernel_constraint": null, "bias_regularizer": null, "kernel_size": [1, 1], "dilation_rate": [1, 1], "padding": "valid", "use_bias": true, "data_format": "channels_last"}, "class_name": "Conv2D", "inbound_nodes": [[["activation_281", 0, 0, {}]]]}, {"name": "bn4e_branch2c", "config": {"name": "bn4e_branch2c", "gamma_constraint": null, "axis": 3, "momentum": 0.99, "trainable": false, "epsilon": 0.001, "moving_mean_initializer": {"config": {}, "class_name": "Zeros"}, "gamma_initializer": {"config": {}, "class_name": "Ones"}, "beta_constraint": null, "scale": true, "gamma_regularizer": null, "beta_regularizer": null, "center": true, "moving_variance_initializer": {"config": {}, "class_name": "Ones"}, "beta_initializer": {"config": {}, "class_name": "Zeros"}}, "class_name": "BatchNormalization", "inbound_nodes": [[["res4e_branch2c", 0, 0, {}]]]}, {"name": "add_92", "config": {"name": "add_92", "trainable": false}, "class_name": "Add", "inbound_nodes": [[["bn4e_branch2c", 0, 0, {}], ["activation_279", 0, 0, {}]]]}, {"name": "activation_282", "config": {"name": "activation_282", "trainable": false, "activation": "relu"}, "class_name": "Activation", "inbound_nodes": [[["add_92", 0, 0, {}]]]}, {"name": "res4f_branch2a", "config": {"name": "res4f_branch2a", "bias_initializer": {"config": {}, "class_name": "Zeros"}, "filters": 256, "activation": "linear", "kernel_regularizer": null, "bias_constraint": null, "kernel_initializer": {"config": {"seed": null, "scale": 2.0, "mode": "fan_in", "distribution": "normal"}, "class_name": "VarianceScaling"}, "trainable": false, "strides": [1, 1], "activity_regularizer": null, "kernel_constraint": null, "bias_regularizer": null, "kernel_size": [1, 1], "dilation_rate": [1, 1], "padding": "valid", "use_bias": true, "data_format": "channels_last"}, "class_name": "Conv2D", "inbound_nodes": [[["activation_282", 0, 0, {}]]]}, {"name": "bn4f_branch2a", "config": {"name": "bn4f_branch2a", "gamma_constraint": null, "axis": 3, "momentum": 0.99, "trainable": false, "epsilon": 0.001, "moving_mean_initializer": {"config": {}, "class_name": "Zeros"}, "gamma_initializer": {"config": {}, "class_name": "Ones"}, "beta_constraint": null, "scale": true, "gamma_regularizer": null, "beta_regularizer": null, "center": true, "moving_variance_initializer": {"config": {}, "class_name": "Ones"}, "beta_initializer": {"config": {}, "class_name": "Zeros"}}, "class_name": "BatchNormalization", "inbound_nodes": [[["res4f_branch2a", 0, 0, {}]]]}, {"name": "activation_283", "config": {"name": "activation_283", "trainable": false, "activation": "relu"}, "class_name": "Activation", "inbound_nodes": [[["bn4f_branch2a", 0, 0, {}]]]}, {"name": "res4f_branch2b", "config": {"name": "res4f_branch2b", "bias_initializer": {"config": {}, "class_name": "Zeros"}, "filters": 256, "activation": "linear", "kernel_regularizer": null, "bias_constraint": null, "kernel_initializer": {"config": {"seed": null, "scale": 2.0, "mode": "fan_in", "distribution": "normal"}, "class_name": "VarianceScaling"}, "trainable": false, "strides": [1, 1], "activity_regularizer": null, "kernel_constraint": null, "bias_regularizer": null, "kernel_size": [3, 3], "dilation_rate": [1, 1], "padding": "same", "use_bias": true, "data_format": "channels_last"}, "class_name": "Conv2D", "inbound_nodes": [[["activation_283", 0, 0, {}]]]}, {"name": "bn4f_branch2b", "config": {"name": "bn4f_branch2b", "gamma_constraint": null, "axis": 3, "momentum": 0.99, "trainable": false, "epsilon": 0.001, "moving_mean_initializer": {"config": {}, "class_name": "Zeros"}, "gamma_initializer": {"config": {}, "class_name": "Ones"}, "beta_constraint": null, "scale": true, "gamma_regularizer": null, "beta_regularizer": null, "center": true, "moving_variance_initializer": {"config": {}, "class_name": "Ones"}, "beta_initializer": {"config": {}, "class_name": "Zeros"}}, "class_name": "BatchNormalization", "inbound_nodes": [[["res4f_branch2b", 0, 0, {}]]]}, {"name": "activation_284", "config": {"name": "activation_284", "trainable": false, "activation": "relu"}, "class_name": "Activation", "inbound_nodes": [[["bn4f_branch2b", 0, 0, {}]]]}, {"name": "res4f_branch2c", "config": {"name": "res4f_branch2c", "bias_initializer": {"config": {}, "class_name": "Zeros"}, "filters": 1024, "activation": "linear", "kernel_regularizer": null, "bias_constraint": null, "kernel_initializer": {"config": {"seed": null, "scale": 2.0, "mode": "fan_in", "distribution": "normal"}, "class_name": "VarianceScaling"}, "trainable": false, "strides": [1, 1], "activity_regularizer": null, "kernel_constraint": null, "bias_regularizer": null, "kernel_size": [1, 1], "dilation_rate": [1, 1], "padding": "valid", "use_bias": true, "data_format": "channels_last"}, "class_name": "Conv2D", "inbound_nodes": [[["activation_284", 0, 0, {}]]]}, {"name": "bn4f_branch2c", "config": {"name": "bn4f_branch2c", "gamma_constraint": null, "axis": 3, "momentum": 0.99, "trainable": false, "epsilon": 0.001, "moving_mean_initializer": {"config": {}, "class_name": "Zeros"}, "gamma_initializer": {"config": {}, "class_name": "Ones"}, "beta_constraint": null, "scale": true, "gamma_regularizer": null, "beta_regularizer": null, "center": true, "moving_variance_initializer": {"config": {}, "class_name": "Ones"}, "beta_initializer": {"config": {}, "class_name": "Zeros"}}, "class_name": "BatchNormalization", "inbound_nodes": [[["res4f_branch2c", 0, 0, {}]]]}, {"name": "add_93", "config": {"name": "add_93", "trainable": false}, "class_name": "Add", "inbound_nodes": [[["bn4f_branch2c", 0, 0, {}], ["activation_282", 0, 0, {}]]]}, {"name": "activation_285", "config": {"name": "activation_285", "trainable": false, "activation": "relu"}, "class_name": "Activation", "inbound_nodes": [[["add_93", 0, 0, {}]]]}, {"name": "res5a_branch2a", "config": {"name": "res5a_branch2a", "bias_initializer": {"config": {}, "class_name": "Zeros"}, "filters": 512, "activation": "linear", "kernel_regularizer": null, "bias_constraint": null, "kernel_initializer": {"config": {"seed": null, "scale": 2.0, "mode": "fan_in", "distribution": "normal"}, "class_name": "VarianceScaling"}, "trainable": false, "strides": [2, 2], "activity_regularizer": null, "kernel_constraint": null, "bias_regularizer": null, "kernel_size": [1, 1], "dilation_rate": [1, 1], "padding": "valid", "use_bias": true, "data_format": "channels_last"}, "class_name": "Conv2D", "inbound_nodes": [[["activation_285", 0, 0, {}]]]}, {"name": "bn5a_branch2a", "config": {"name": "bn5a_branch2a", "gamma_constraint": null, "axis": 3, "momentum": 0.99, "trainable": false, "epsilon": 0.001, "moving_mean_initializer": {"config": {}, "class_name": "Zeros"}, "gamma_initializer": {"config": {}, "class_name": "Ones"}, "beta_constraint": null, "scale": true, "gamma_regularizer": null, "beta_regularizer": null, "center": true, "moving_variance_initializer": {"config": {}, "class_name": "Ones"}, "beta_initializer": {"config": {}, "class_name": "Zeros"}}, "class_name": "BatchNormalization", "inbound_nodes": [[["res5a_branch2a", 0, 0, {}]]]}, {"name": "activation_286", "config": {"name": "activation_286", "trainable": false, "activation": "relu"}, "class_name": "Activation", "inbound_nodes": [[["bn5a_branch2a", 0, 0, {}]]]}, {"name": "res5a_branch2b", "config": {"name": "res5a_branch2b", "bias_initializer": {"config": {}, "class_name": "Zeros"}, "filters": 512, "activation": "linear", "kernel_regularizer": null, "bias_constraint": null, "kernel_initializer": {"config": {"seed": null, "scale": 2.0, "mode": "fan_in", "distribution": "normal"}, "class_name": "VarianceScaling"}, "trainable": false, "strides": [1, 1], "activity_regularizer": null, "kernel_constraint": null, "bias_regularizer": null, "kernel_size": [3, 3], "dilation_rate": [1, 1], "padding": "same", "use_bias": true, "data_format": "channels_last"}, "class_name": "Conv2D", "inbound_nodes": [[["activation_286", 0, 0, {}]]]}, {"name": "bn5a_branch2b", "config": {"name": "bn5a_branch2b", "gamma_constraint": null, "axis": 3, "momentum": 0.99, "trainable": false, "epsilon": 0.001, "moving_mean_initializer": {"config": {}, "class_name": "Zeros"}, "gamma_initializer": {"config": {}, "class_name": "Ones"}, "beta_constraint": null, "scale": true, "gamma_regularizer": null, "beta_regularizer": null, "center": true, "moving_variance_initializer": {"config": {}, "class_name": "Ones"}, "beta_initializer": {"config": {}, "class_name": "Zeros"}}, "class_name": "BatchNormalization", "inbound_nodes": [[["res5a_branch2b", 0, 0, {}]]]}, {"name": "activation_287", "config": {"name": "activation_287", "trainable": false, "activation": "relu"}, "class_name": "Activation", "inbound_nodes": [[["bn5a_branch2b", 0, 0, {}]]]}, {"name": "res5a_branch2c", "config": {"name": "res5a_branch2c", "bias_initializer": {"config": {}, "class_name": "Zeros"}, "filters": 2048, "activation": "linear", "kernel_regularizer": null, "bias_constraint": null, "kernel_initializer": {"config": {"seed": null, "scale": 2.0, "mode": "fan_in", "distribution": "normal"}, "class_name": "VarianceScaling"}, "trainable": false, "strides": [1, 1], "activity_regularizer": null, "kernel_constraint": null, "bias_regularizer": null, "kernel_size": [1, 1], "dilation_rate": [1, 1], "padding": "valid", "use_bias": true, "data_format": "channels_last"}, "class_name": "Conv2D", "inbound_nodes": [[["activation_287", 0, 0, {}]]]}, {"name": "res5a_branch1", "config": {"name": "res5a_branch1", "bias_initializer": {"config": {}, "class_name": "Zeros"}, "filters": 2048, "activation": "linear", "kernel_regularizer": null, "bias_constraint": null, "kernel_initializer": {"config": {"seed": null, "scale": 2.0, "mode": "fan_in", "distribution": "normal"}, "class_name": "VarianceScaling"}, "trainable": false, "strides": [2, 2], "activity_regularizer": null, "kernel_constraint": null, "bias_regularizer": null, "kernel_size": [1, 1], "dilation_rate": [1, 1], "padding": "valid", "use_bias": true, "data_format": "channels_last"}, "class_name": "Conv2D", "inbound_nodes": [[["activation_285", 0, 0, {}]]]}, {"name": "bn5a_branch2c", "config": {"name": "bn5a_branch2c", "gamma_constraint": null, "axis": 3, "momentum": 0.99, "trainable": false, "epsilon": 0.001, "moving_mean_initializer": {"config": {}, "class_name": "Zeros"}, "gamma_initializer": {"config": {}, "class_name": "Ones"}, "beta_constraint": null, "scale": true, "gamma_regularizer": null, "beta_regularizer": null, "center": true, "moving_variance_initializer": {"config": {}, "class_name": "Ones"}, "beta_initializer": {"config": {}, "class_name": "Zeros"}}, "class_name": "BatchNormalization", "inbound_nodes": [[["res5a_branch2c", 0, 0, {}]]]}, {"name": "bn5a_branch1", "config": {"name": "bn5a_branch1", "gamma_constraint": null, "axis": 3, "momentum": 0.99, "trainable": false, "epsilon": 0.001, "moving_mean_initializer": {"config": {}, "class_name": "Zeros"}, "gamma_initializer": {"config": {}, "class_name": "Ones"}, "beta_constraint": null, "scale": true, "gamma_regularizer": null, "beta_regularizer": null, "center": true, "moving_variance_initializer": {"config": {}, "class_name": "Ones"}, "beta_initializer": {"config": {}, "class_name": "Zeros"}}, "class_name": "BatchNormalization", "inbound_nodes": [[["res5a_branch1", 0, 0, {}]]]}, {"name": "add_94", "config": {"name": "add_94", "trainable": false}, "class_name": "Add", "inbound_nodes": [[["bn5a_branch2c", 0, 0, {}], ["bn5a_branch1", 0, 0, {}]]]}, {"name": "activation_288", "config": {"name": "activation_288", "trainable": false, "activation": "relu"}, "class_name": "Activation", "inbound_nodes": [[["add_94", 0, 0, {}]]]}, {"name": "res5b_branch2a", "config": {"name": "res5b_branch2a", "bias_initializer": {"config": {}, "class_name": "Zeros"}, "filters": 512, "activation": "linear", "kernel_regularizer": null, "bias_constraint": null, "kernel_initializer": {"config": {"seed": null, "scale": 2.0, "mode": "fan_in", "distribution": "normal"}, "class_name": "VarianceScaling"}, "trainable": false, "strides": [1, 1], "activity_regularizer": null, "kernel_constraint": null, "bias_regularizer": null, "kernel_size": [1, 1], "dilation_rate": [1, 1], "padding": "valid", "use_bias": true, "data_format": "channels_last"}, "class_name": "Conv2D", "inbound_nodes": [[["activation_288", 0, 0, {}]]]}, {"name": "bn5b_branch2a", "config": {"name": "bn5b_branch2a", "gamma_constraint": null, "axis": 3, "momentum": 0.99, "trainable": false, "epsilon": 0.001, "moving_mean_initializer": {"config": {}, "class_name": "Zeros"}, "gamma_initializer": {"config": {}, "class_name": "Ones"}, "beta_constraint": null, "scale": true, "gamma_regularizer": null, "beta_regularizer": null, "center": true, "moving_variance_initializer": {"config": {}, "class_name": "Ones"}, "beta_initializer": {"config": {}, "class_name": "Zeros"}}, "class_name": "BatchNormalization", "inbound_nodes": [[["res5b_branch2a", 0, 0, {}]]]}, {"name": "activation_289", "config": {"name": "activation_289", "trainable": false, "activation": "relu"}, "class_name": "Activation", "inbound_nodes": [[["bn5b_branch2a", 0, 0, {}]]]}, {"name": "res5b_branch2b", "config": {"name": "res5b_branch2b", "bias_initializer": {"config": {}, "class_name": "Zeros"}, "filters": 512, "activation": "linear", "kernel_regularizer": null, "bias_constraint": null, "kernel_initializer": {"config": {"seed": null, "scale": 2.0, "mode": "fan_in", "distribution": "normal"}, "class_name": "VarianceScaling"}, "trainable": false, "strides": [1, 1], "activity_regularizer": null, "kernel_constraint": null, "bias_regularizer": null, "kernel_size": [3, 3], "dilation_rate": [1, 1], "padding": "same", "use_bias": true, "data_format": "channels_last"}, "class_name": "Conv2D", "inbound_nodes": [[["activation_289", 0, 0, {}]]]}, {"name": "bn5b_branch2b", "config": {"name": "bn5b_branch2b", "gamma_constraint": null, "axis": 3, "momentum": 0.99, "trainable": false, "epsilon": 0.001, "moving_mean_initializer": {"config": {}, "class_name": "Zeros"}, "gamma_initializer": {"config": {}, "class_name": "Ones"}, "beta_constraint": null, "scale": true, "gamma_regularizer": null, "beta_regularizer": null, "center": true, "moving_variance_initializer": {"config": {}, "class_name": "Ones"}, "beta_initializer": {"config": {}, "class_name": "Zeros"}}, "class_name": "BatchNormalization", "inbound_nodes": [[["res5b_branch2b", 0, 0, {}]]]}, {"name": "activation_290", "config": {"name": "activation_290", "trainable": false, "activation": "relu"}, "class_name": "Activation", "inbound_nodes": [[["bn5b_branch2b", 0, 0, {}]]]}, {"name": "res5b_branch2c", "config": {"name": "res5b_branch2c", "bias_initializer": {"config": {}, "class_name": "Zeros"}, "filters": 2048, "activation": "linear", "kernel_regularizer": null, "bias_constraint": null, "kernel_initializer": {"config": {"seed": null, "scale": 2.0, "mode": "fan_in", "distribution": "normal"}, "class_name": "VarianceScaling"}, "trainable": false, "strides": [1, 1], "activity_regularizer": null, "kernel_constraint": null, "bias_regularizer": null, "kernel_size": [1, 1], "dilation_rate": [1, 1], "padding": "valid", "use_bias": true, "data_format": "channels_last"}, "class_name": "Conv2D", "inbound_nodes": [[["activation_290", 0, 0, {}]]]}, {"name": "bn5b_branch2c", "config": {"name": "bn5b_branch2c", "gamma_constraint": null, "axis": 3, "momentum": 0.99, "trainable": false, "epsilon": 0.001, "moving_mean_initializer": {"config": {}, "class_name": "Zeros"}, "gamma_initializer": {"config": {}, "class_name": "Ones"}, "beta_constraint": null, "scale": true, "gamma_regularizer": null, "beta_regularizer": null, "center": true, "moving_variance_initializer": {"config": {}, "class_name": "Ones"}, "beta_initializer": {"config": {}, "class_name": "Zeros"}}, "class_name": "BatchNormalization", "inbound_nodes": [[["res5b_branch2c", 0, 0, {}]]]}, {"name": "add_95", "config": {"name": "add_95", "trainable": false}, "class_name": "Add", "inbound_nodes": [[["bn5b_branch2c", 0, 0, {}], ["activation_288", 0, 0, {}]]]}, {"name": "activation_291", "config": {"name": "activation_291", "trainable": false, "activation": "relu"}, "class_name": "Activation", "inbound_nodes": [[["add_95", 0, 0, {}]]]}, {"name": "res5c_branch2a", "config": {"name": "res5c_branch2a", "bias_initializer": {"config": {}, "class_name": "Zeros"}, "filters": 512, "activation": "linear", "kernel_regularizer": null, "bias_constraint": null, "kernel_initializer": {"config": {"seed": null, "scale": 2.0, "mode": "fan_in", "distribution": "normal"}, "class_name": "VarianceScaling"}, "trainable": false, "strides": [1, 1], "activity_regularizer": null, "kernel_constraint": null, "bias_regularizer": null, "kernel_size": [1, 1], "dilation_rate": [1, 1], "padding": "valid", "use_bias": true, "data_format": "channels_last"}, "class_name": "Conv2D", "inbound_nodes": [[["activation_291", 0, 0, {}]]]}, {"name": "bn5c_branch2a", "config": {"name": "bn5c_branch2a", "gamma_constraint": null, "axis": 3, "momentum": 0.99, "trainable": false, "epsilon": 0.001, "moving_mean_initializer": {"config": {}, "class_name": "Zeros"}, "gamma_initializer": {"config": {}, "class_name": "Ones"}, "beta_constraint": null, "scale": true, "gamma_regularizer": null, "beta_regularizer": null, "center": true, "moving_variance_initializer": {"config": {}, "class_name": "Ones"}, "beta_initializer": {"config": {}, "class_name": "Zeros"}}, "class_name": "BatchNormalization", "inbound_nodes": [[["res5c_branch2a", 0, 0, {}]]]}, {"name": "activation_292", "config": {"name": "activation_292", "trainable": false, "activation": "relu"}, "class_name": "Activation", "inbound_nodes": [[["bn5c_branch2a", 0, 0, {}]]]}, {"name": "res5c_branch2b", "config": {"name": "res5c_branch2b", "bias_initializer": {"config": {}, "class_name": "Zeros"}, "filters": 512, "activation": "linear", "kernel_regularizer": null, "bias_constraint": null, "kernel_initializer": {"config": {"seed": null, "scale": 2.0, "mode": "fan_in", "distribution": "normal"}, "class_name": "VarianceScaling"}, "trainable": false, "strides": [1, 1], "activity_regularizer": null, "kernel_constraint": null, "bias_regularizer": null, "kernel_size": [3, 3], "dilation_rate": [1, 1], "padding": "same", "use_bias": true, "data_format": "channels_last"}, "class_name": "Conv2D", "inbound_nodes": [[["activation_292", 0, 0, {}]]]}, {"name": "bn5c_branch2b", "config": {"name": "bn5c_branch2b", "gamma_constraint": null, "axis": 3, "momentum": 0.99, "trainable": false, "epsilon": 0.001, "moving_mean_initializer": {"config": {}, "class_name": "Zeros"}, "gamma_initializer": {"config": {}, "class_name": "Ones"}, "beta_constraint": null, "scale": true, "gamma_regularizer": null, "beta_regularizer": null, "center": true, "moving_variance_initializer": {"config": {}, "class_name": "Ones"}, "beta_initializer": {"config": {}, "class_name": "Zeros"}}, "class_name": "BatchNormalization", "inbound_nodes": [[["res5c_branch2b", 0, 0, {}]]]}, {"name": "activation_293", "config": {"name": "activation_293", "trainable": false, "activation": "relu"}, "class_name": "Activation", "inbound_nodes": [[["bn5c_branch2b", 0, 0, {}]]]}, {"name": "res5c_branch2c", "config": {"name": "res5c_branch2c", "bias_initializer": {"config": {}, "class_name": "Zeros"}, "filters": 2048, "activation": "linear", "kernel_regularizer": null, "bias_constraint": null, "kernel_initializer": {"config": {"seed": null, "scale": 2.0, "mode": "fan_in", "distribution": "normal"}, "class_name": "VarianceScaling"}, "trainable": false, "strides": [1, 1], "activity_regularizer": null, "kernel_constraint": null, "bias_regularizer": null, "kernel_size": [1, 1], "dilation_rate": [1, 1], "padding": "valid", "use_bias": true, "data_format": "channels_last"}, "class_name": "Conv2D", "inbound_nodes": [[["activation_293", 0, 0, {}]]]}, {"name": "bn5c_branch2c", "config": {"name": "bn5c_branch2c", "gamma_constraint": null, "axis": 3, "momentum": 0.99, "trainable": false, "epsilon": 0.001, "moving_mean_initializer": {"config": {}, "class_name": "Zeros"}, "gamma_initializer": {"config": {}, "class_name": "Ones"}, "beta_constraint": null, "scale": true, "gamma_regularizer": null, "beta_regularizer": null, "center": true, "moving_variance_initializer": {"config": {}, "class_name": "Ones"}, "beta_initializer": {"config": {}, "class_name": "Zeros"}}, "class_name": "BatchNormalization", "inbound_nodes": [[["res5c_branch2c", 0, 0, {}]]]}, {"name": "add_96", "config": {"name": "add_96", "trainable": false}, "class_name": "Add", "inbound_nodes": [[["bn5c_branch2c", 0, 0, {}], ["activation_291", 0, 0, {}]]]}, {"name": "activation_294", "config": {"name": "activation_294", "trainable": false, "activation": "relu"}, "class_name": "Activation", "inbound_nodes": [[["add_96", 0, 0, {}]]]}, {"name": "avg_pool", "config": {"name": "avg_pool", "trainable": false, "data_format": "channels_last"}, "class_name": "GlobalAveragePooling2D", "inbound_nodes": [[["activation_294", 0, 0, {}]]]}, {"name": "fc1000", "config": {"name": "fc1000", "bias_initializer": {"config": {}, "class_name": "Zeros"}, "activity_regularizer": null, "activation": "softmax", "units": 1000, "kernel_initializer": {"config": {"seed": null, "scale": 1.0, "mode": "fan_avg", "distribution": "uniform"}, "class_name": "VarianceScaling"}, "trainable": false, "kernel_constraint": null, "bias_regularizer": null, "kernel_regularizer": null, "bias_constraint": null, "use_bias": true}, "class_name": "Dense", "inbound_nodes": [[["avg_pool", 0, 0, {}]]]}, {"name": "dense_30", "config": {"name": "dense_30", "bias_initializer": {"config": {}, "class_name": "Zeros"}, "activity_regularizer": null, "activation": "relu", "units": 100, "kernel_initializer": {"config": {"seed": null, "scale": 1.0, "mode": "fan_avg", "distribution": "uniform"}, "class_name": "VarianceScaling"}, "trainable": true, "kernel_constraint": null, "bias_regularizer": null, "kernel_regularizer": null, "bias_constraint": null, "use_bias": true}, "class_name": "Dense", "inbound_nodes": [[["fc1000", 0, 0, {}]]]}, {"name": "dense_31", "config": {"name": "dense_31", "bias_initializer": {"config": {}, "class_name": "Zeros"}, "activity_regularizer": null, "activation": "softmax", "units": 4, "kernel_initializer": {"config": {"seed": null, "scale": 1.0, "mode": "fan_avg", "distribution": "uniform"}, "class_name": "VarianceScaling"}, "trainable": true, "kernel_constraint": null, "bias_regularizer": null, "kernel_regularizer": null, "bias_constraint": null, "use_bias": true}, "class_name": "Dense", "inbound_nodes": [[["dense_30", 0, 0, {}]]]}], "output_layers": [["dense_31", 0, 0]]}, "backend": "tensorflow", "keras_version": "2.2.4", "class_name": "Model"}